…
warm_iters                100
lr_decay_rate             0.1
lr_decay_stages           [28, 34]
test_image_short_size     800
test_image_max_size       1333
test_max_boxes_per_image  100
test_vis_threshold        0.3
test_cls_threshold        0.05
test_nms                  0.5
------------------------  ------------------------------------------------------------------------------------------------------------------------------------------------------------------------------------------------------------------------------------
[32m23 12:23:52 [0mRetinaNet(
  (backbone): FPN(
    (lateral_convs.0): Conv2d(2048, 256, kernel_size=(1, 1))
    (lateral_convs.1): Conv2d(1024, 256, kernel_size=(1, 1))
    (lateral_convs.2): Conv2d(512, 256, kernel_size=(1, 1))
    (output_convs.0): Conv2d(256, 256, kernel_size=(3, 3), padding=(1, 1))
    (output_convs.1): Conv2d(256, 256, kernel_size=(3, 3), padding=(1, 1))
    (output_convs.2): Conv2d(256, 256, kernel_size=(3, 3), padding=(1, 1))
    (fpn_lateral3): Conv2d(512, 256, kernel_size=(1, 1))
    (fpn_output3): Conv2d(256, 256, kernel_size=(3, 3), padding=(1, 1))
    (fpn_lateral4): Conv2d(1024, 256, kernel_size=(1, 1))
    (fpn_output4): Conv2d(256, 256, kernel_size=(3, 3), padding=(1, 1))
    (fpn_lateral5): Conv2d(2048, 256, kernel_size=(1, 1))
    (fpn_output5): Conv2d(256, 256, kernel_size=(3, 3), padding=(1, 1))
    (top_block): LastLevelP6P7(
      (p6): Conv2d(2048, 256, kernel_size=(3, 3), stride=(2, 2), padding=(1, 1))
      (p7): Conv2d(256, 256, kernel_size=(3, 3), stride=(2, 2), padding=(1, 1))
    )
    (bottom_up): ResNet(
      (conv1): Conv2d(3, 64, kernel_size=(7, 7), stride=(2, 2), padding=(3, 3), bias=False)
      (bn1): BatchNorm2d(64, eps=1e-05, momentum=0.9, affine=True, track_running_stats=True)
      (maxpool): MaxPool2d(kernel_size=3, stride=2, padding=1)
      (layer1): Sequential(
        (0): Bottleneck(
          (conv1): Conv2d(64, 64, kernel_size=(1, 1), bias=False)
          (bn1): BatchNorm2d(64, eps=1e-05, momentum=0.9, affine=True, track_running_stats=True)
          (conv2): Conv2d(64, 64, kernel_size=(3, 3), padding=(1, 1), bias=False)
          (bn2): BatchNorm2d(64, eps=1e-05, momentum=0.9, affine=True, track_running_stats=True)
          (conv3): Conv2d(64, 256, kernel_size=(1, 1), bias=False)
          (bn3): BatchNorm2d(256, eps=1e-05, momentum=0.9, affine=True, track_running_stats=True)
          (downsample): Sequential(
            (0): Conv2d(64, 256, kernel_size=(1, 1), bias=False)
            (1): BatchNorm2d(256, eps=1e-05, momentum=0.9, affine=True, track_running_stats=True)
          )
        )
        (1): Bottleneck(
          (conv1): Conv2d(256, 64, kernel_size=(1, 1), bias=False)
          (bn1): BatchNorm2d(64, eps=1e-05, momentum=0.9, affine=True, track_running_stats=True)
          (conv2): Conv2d(64, 64, kernel_size=(3, 3), padding=(1, 1), bias=False)
          (bn2): BatchNorm2d(64, eps=1e-05, momentum=0.9, affine=True, track_running_stats=True)
          (conv3): Conv2d(64, 256, kernel_size=(1, 1), bias=False)
          (bn3): BatchNorm2d(256, eps=1e-05, momentum=0.9, affine=True, track_running_stats=True)
          (downsample): Identity()
        )
        (2): Bottleneck(
          (conv1): Conv2d(256, 64, kernel_size=(1, 1), bias=False)
          (bn1): BatchNorm2d(64, eps=1e-05, momentum=0.9, affine=True, track_running_stats=True)
          (conv2): Conv2d(64, 64, kernel_size=(3, 3), padding=(1, 1), bias=False)
          (bn2): BatchNorm2d(64, eps=1e-05, momentum=0.9, affine=True, track_running_stats=True)
          (conv3): Conv2d(64, 256, kernel_size=(1, 1), bias=False)
          (bn3): BatchNorm2d(256, eps=1e-05, momentum=0.9, affine=True, track_running_stats=True)
          (downsample): Identity()
        )
      )
      (layer2): Sequential(
        (0): Bottleneck(
          (conv1): Conv2d(256, 128, kernel_size=(1, 1), bias=False)
          (bn1): BatchNorm2d(128, eps=1e-05, momentum=0.9, affine=True, track_running_stats=True)
          (conv2): Conv2d(128, 128, kernel_size=(3, 3), stride=(2, 2), padding=(1, 1), bias=False)
          (bn2): BatchNorm2d(128, eps=1e-05, momentum=0.9, affine=True, track_running_stats=True)
          (conv3): Conv2d(128, 512, kernel_size=(1, 1), bias=False)
          (bn3): BatchNorm2d(512, eps=1e-05, momentum=0.9, affine=True, track_running_stats=True)
          (downsample): Sequential(
            (0): Conv2d(256, 512, kernel_size=(1, 1), stride=(2, 2), bias=False)
            (1): BatchNorm2d(512, eps=1e-05, momentum=0.9, affine=True, track_running_stats=True)
          )
        )
        (1): Bottleneck(
          (conv1): Conv2d(512, 128, kernel_size=(1, 1), bias=False)
          (bn1): BatchNorm2d(128, eps=1e-05, momentum=0.9, affine=True, track_running_stats=True)
          (conv2): Conv2d(128, 128, kernel_size=(3, 3), padding=(1, 1), bias=False)
          (bn2): BatchNorm2d(128, eps=1e-05, momentum=0.9, affine=True, track_running_stats=True)
          (conv3): Conv2d(128, 512, kernel_size=(1, 1), bias=False)
          (bn3): BatchNorm2d(512, eps=1e-05, momentum=0.9, affine=True, track_running_stats=True)
          (downsample): Identity()
        )
        (2): Bottleneck(
          (conv1): Conv2d(512, 128, kernel_size=(1, 1), bias=False)
          (bn1): BatchNorm2d(128, eps=1e-05, momentum=0.9, affine=True, track_running_stats=True)
          (conv2): Conv2d(128, 128, kernel_size=(3, 3), padding=(1, 1), bias=False)
          (bn2): BatchNorm2d(128, eps=1e-05, momentum=0.9, affine=True, track_running_stats=True)
          (conv3): Conv2d(128, 512, kernel_size=(1, 1), bias=False)
          (bn3): BatchNorm2d(512, eps=1e-05, momentum=0.9, affine=True, track_running_stats=True)
          (downsample): Identity()
        )
        (3): Bottleneck(
          (conv1): Conv2d(512, 128, kernel_size=(1, 1), bias=False)
          (bn1): BatchNorm2d(128, eps=1e-05, momentum=0.9, affine=True, track_running_stats=True)
          (conv2): Conv2d(128, 128, kernel_size=(3, 3), padding=(1, 1), bias=False)
          (bn2): BatchNorm2d(128, eps=1e-05, momentum=0.9, affine=True, track_running_stats=True)
          (conv3): Conv2d(128, 512, kernel_size=(1, 1), bias=False)
          (bn3): BatchNorm2d(512, eps=1e-05, momentum=0.9, affine=True, track_running_stats=True)
          (downsample): Identity()
        )
      )
      (layer3): Sequential(
        (0): Bottleneck(
          (conv1): Conv2d(512, 256, kernel_size=(1, 1), bias=False)
          (bn1): BatchNorm2d(256, eps=1e-05, momentum=0.9, affine=True, track_running_stats=True)
          (conv2): Conv2d(256, 256, kernel_size=(3, 3), stride=(2, 2), padding=(1, 1), bias=False)
          (bn2): BatchNorm2d(256, eps=1e-05, momentum=0.9, affine=True, track_running_stats=True)
          (conv3): Conv2d(256, 1024, kernel_size=(1, 1), bias=False)
          (bn3): BatchNorm2d(1024, eps=1e-05, momentum=0.9, affine=True, track_running_stats=True)
          (downsample): Sequential(
            (0): Conv2d(512, 1024, kernel_size=(1, 1), stride=(2, 2), bias=False)
            (1): BatchNorm2d(1024, eps=1e-05, momentum=0.9, affine=True, track_running_stats=True)
          )
        )
        (1): Bottleneck(
          (conv1): Conv2d(1024, 256, kernel_size=(1, 1), bias=False)
          (bn1): BatchNorm2d(256, eps=1e-05, momentum=0.9, affine=True, track_running_stats=True)
          (conv2): Conv2d(256, 256, kernel_size=(3, 3), padding=(1, 1), bias=False)
          (bn2): BatchNorm2d(256, eps=1e-05, momentum=0.9, affine=True, track_running_stats=True)
          (conv3): Conv2d(256, 1024, kernel_size=(1, 1), bias=False)
          (bn3): BatchNorm2d(1024, eps=1e-05, momentum=0.9, affine=True, track_running_stats=True)
          (downsample): Identity()
        )
        (2): Bottleneck(
          (conv1): Conv2d(1024, 256, kernel_size=(1, 1), bias=False)
          (bn1): BatchNorm2d(256, eps=1e-05, momentum=0.9, affine=True, track_running_stats=True)
          (conv2): Conv2d(256, 256, kernel_size=(3, 3), padding=(1, 1), bias=False)
          (bn2): BatchNorm2d(256, eps=1e-05, momentum=0.9, affine=True, track_running_stats=True)
          (conv3): Conv2d(256, 1024, kernel_size=(1, 1), bias=False)
          (bn3): BatchNorm2d(1024, eps=1e-05, momentum=0.9, affine=True, track_running_stats=True)
          (downsample): Identity()
        )
        (3): Bottleneck(
          (conv1): Conv2d(1024, 256, kernel_size=(1, 1), bias=False)
          (bn1): BatchNorm2d(256, eps=1e-05, momentum=0.9, affine=True, track_running_stats=True)
          (conv2): Conv2d(256, 256, kernel_size=(3, 3), padding=(1, 1), bias=False)
          (bn2): BatchNorm2d(256, eps=1e-05, momentum=0.9, affine=True, track_running_stats=True)
          (conv3): Conv2d(256, 1024, kernel_size=(1, 1), bias=False)
          (bn3): BatchNorm2d(1024, eps=1e-05, momentum=0.9, affine=True, track_running_stats=True)
          (downsample): Identity()
        )
        (4): Bottleneck(
          (conv1): Conv2d(1024, 256, kernel_size=(1, 1), bias=False)
          (bn1): BatchNorm2d(256, eps=1e-05, momentum=0.9, affine=True, track_running_stats=True)
          (conv2): Conv2d(256, 256, kernel_size=(3, 3), padding=(1, 1), bias=False)
          (bn2): BatchNorm2d(256, eps=1e-05, momentum=0.9, affine=True, track_running_stats=True)
          (conv3): Conv2d(256, 1024, kernel_size=(1, 1), bias=False)
          (bn3): BatchNorm2d(1024, eps=1e-05, momentum=0.9, affine=True, track_running_stats=True)
          (downsample): Identity()
        )
        (5): Bottleneck(
          (conv1): Conv2d(1024, 256, kernel_size=(1, 1), bias=False)
          (bn1): BatchNorm2d(256, eps=1e-05, momentum=0.9, affine=True, track_running_stats=True)
          (conv2): Conv2d(256, 256, kernel_size=(3, 3), padding=(1, 1), bias=False)
          (bn2): BatchNorm2d(256, eps=1e-05, momentum=0.9, affine=True, track_running_stats=True)
          (conv3): Conv2d(256, 1024, kernel_size=(1, 1), bias=False)
          (bn3): BatchNorm2d(1024, eps=1e-05, momentum=0.9, affine=True, track_running_stats=True)
          (downsample): Identity()
        )
      )
      (layer4): Sequential(
        (0): Bottleneck(
          (conv1): Conv2d(1024, 512, kernel_size=(1, 1), bias=False)
          (bn1): BatchNorm2d(512, eps=1e-05, momentum=0.9, affine=True, track_running_stats=True)
          (conv2): Conv2d(512, 512, kernel_size=(3, 3), stride=(2, 2), padding=(1, 1), bias=False)
          (bn2): BatchNorm2d(512, eps=1e-05, momentum=0.9, affine=True, track_running_stats=True)
          (conv3): Conv2d(512, 2048, kernel_size=(1, 1), bias=False)
          (bn3): BatchNorm2d(2048, eps=1e-05, momentum=0.9, affine=True, track_running_stats=True)
          (downsample): Sequential(
            (0): Conv2d(1024, 2048, kernel_size=(1, 1), stride=(2, 2), bias=False)
            (1): BatchNorm2d(2048, eps=1e-05, momentum=0.9, affine=True, track_running_stats=True)
          )
        )
        (1): Bottleneck(
          (conv1): Conv2d(2048, 512, kernel_size=(1, 1), bias=False)
          (bn1): BatchNorm2d(512, eps=1e-05, momentum=0.9, affine=True, track_running_stats=True)
          (conv2): Conv2d(512, 512, kernel_size=(3, 3), padding=(1, 1), bias=False)
          (bn2): BatchNorm2d(512, eps=1e-05, momentum=0.9, affine=True, track_running_stats=True)
          (conv3): Conv2d(512, 2048, kernel_size=(1, 1), bias=False)
          (bn3): BatchNorm2d(2048, eps=1e-05, momentum=0.9, affine=True, track_running_stats=True)
          (downsample): Identity()
        )
        (2): Bottleneck(
          (conv1): Conv2d(2048, 512, kernel_size=(1, 1), bias=False)
          (bn1): BatchNorm2d(512, eps=1e-05, momentum=0.9, affine=True, track_running_stats=True)
          (conv2): Conv2d(512, 512, kernel_size=(3, 3), padding=(1, 1), bias=False)
          (bn2): BatchNorm2d(512, eps=1e-05, momentum=0.9, affine=True, track_running_stats=True)
          (conv3): Conv2d(512, 2048, kernel_size=(1, 1), bias=False)
          (bn3): BatchNorm2d(2048, eps=1e-05, momentum=0.9, affine=True, track_running_stats=True)
          (downsample): Identity()
        )
      )
    )
  )
  (head): BoxHead(
    (cls_subnet): Sequential(
      (0): Conv2d(256, 256, kernel_size=(3, 3), padding=(1, 1))
      (1): ReLU()
      (2): Conv2d(256, 256, kernel_size=(3, 3), padding=(1, 1))
      (3): ReLU()
      (4): Conv2d(256, 256, kernel_size=(3, 3), padding=(1, 1))
      (5): ReLU()
      (6): Conv2d(256, 256, kernel_size=(3, 3), padding=(1, 1))
      (7): ReLU()
    )
    (bbox_subnet): Sequential(
      (0): Conv2d(256, 256, kernel_size=(3, 3), padding=(1, 1))
      (1): ReLU()
      (2): Conv2d(256, 256, kernel_size=(3, 3), padding=(1, 1))
      (3): ReLU()
      (4): Conv2d(256, 256, kernel_size=(3, 3), padding=(1, 1))
      (5): ReLU()
      (6): Conv2d(256, 256, kernel_size=(3, 3), padding=(1, 1))
      (7): ReLU()
    )
    (cls_score): Conv2d(256, 180, kernel_size=(3, 3), padding=(1, 1))
    (bbox_pred): Conv2d(256, 36, kernel_size=(3, 3), padding=(1, 1))
  )
)
[32m23 12:23:52 [0mLoading Base-Pretrain weights...
[32m23 12:23:54 [0mPrepare dataset
[32m23 12:24:04 [0me0, 0/200, lr:0.000025, total_loss:1.463863, loss_cls:1.328727, loss_bbox:0.135136, train_time:1.033s, data_time:6.109s
[32m23 12:24:06 [0me0, 10/200, lr:0.000275, total_loss:1.545136, loss_cls:1.302109, loss_bbox:0.243028, train_time:0.138s, data_time:0.002s
…
