…
nr_images_epoch           400
max_epoch                 36
warm_iters                100
lr_decay_rate             0.1
lr_decay_stages           [16, 21]
test_image_short_size     800
test_image_max_size       1333
test_prev_nms_top_n       1000
test_post_nms_top_n       1000
test_max_boxes_per_image  100
test_vis_threshold        0.3
test_cls_threshold        0.05
test_nms                  0.5
------------------------  -----------------------------------------------------------------------------------------------------------------------
[32m22 09:13:15 [0mFasterRCNN(
  (backbone): FPN(
    (lateral_convs.0): Conv2d(2048, 256, kernel_size=(1, 1))
    (lateral_convs.1): Conv2d(1024, 256, kernel_size=(1, 1))
    (lateral_convs.2): Conv2d(512, 256, kernel_size=(1, 1))
    (lateral_convs.3): Conv2d(256, 256, kernel_size=(1, 1))
    (output_convs.0): Conv2d(256, 256, kernel_size=(3, 3), padding=(1, 1))
    (output_convs.1): Conv2d(256, 256, kernel_size=(3, 3), padding=(1, 1))
    (output_convs.2): Conv2d(256, 256, kernel_size=(3, 3), padding=(1, 1))
    (output_convs.3): Conv2d(256, 256, kernel_size=(3, 3), padding=(1, 1))
    (fpn_lateral2): Conv2d(256, 256, kernel_size=(1, 1))
    (fpn_output2): Conv2d(256, 256, kernel_size=(3, 3), padding=(1, 1))
    (fpn_lateral3): Conv2d(512, 256, kernel_size=(1, 1))
    (fpn_output3): Conv2d(256, 256, kernel_size=(3, 3), padding=(1, 1))
    (fpn_lateral4): Conv2d(1024, 256, kernel_size=(1, 1))
    (fpn_output4): Conv2d(256, 256, kernel_size=(3, 3), padding=(1, 1))
    (fpn_lateral5): Conv2d(2048, 256, kernel_size=(1, 1))
    (fpn_output5): Conv2d(256, 256, kernel_size=(3, 3), padding=(1, 1))
    (top_block): FPNP6(
      (pool): MaxPool2d(kernel_size=1, stride=2, padding=0)
    )
    (bottom_up): ResNet(
      (conv1): Conv2d(3, 64, kernel_size=(7, 7), stride=(2, 2), padding=(3, 3), bias=False)
      (bn1): BatchNorm2d(64, eps=1e-05, momentum=0.9, affine=True, track_running_stats=True)
      (maxpool): MaxPool2d(kernel_size=3, stride=2, padding=1)
      (layer1): Sequential(
        (0): Bottleneck(
          (conv1): Conv2d(64, 64, kernel_size=(1, 1), bias=False)
          (bn1): BatchNorm2d(64, eps=1e-05, momentum=0.9, affine=True, track_running_stats=True)
          (conv2): Conv2d(64, 64, kernel_size=(3, 3), padding=(1, 1), bias=False)
          (bn2): BatchNorm2d(64, eps=1e-05, momentum=0.9, affine=True, track_running_stats=True)
          (conv3): Conv2d(64, 256, kernel_size=(1, 1), bias=False)
          (bn3): BatchNorm2d(256, eps=1e-05, momentum=0.9, affine=True, track_running_stats=True)
          (downsample): Sequential(
            (0): Conv2d(64, 256, kernel_size=(1, 1), bias=False)
            (1): BatchNorm2d(256, eps=1e-05, momentum=0.9, affine=True, track_running_stats=True)
          )
        )
        (1): Bottleneck(
          (conv1): Conv2d(256, 64, kernel_size=(1, 1), bias=False)
          (bn1): BatchNorm2d(64, eps=1e-05, momentum=0.9, affine=True, track_running_stats=True)
          (conv2): Conv2d(64, 64, kernel_size=(3, 3), padding=(1, 1), bias=False)
          (bn2): BatchNorm2d(64, eps=1e-05, momentum=0.9, affine=True, track_running_stats=True)
          (conv3): Conv2d(64, 256, kernel_size=(1, 1), bias=False)
          (bn3): BatchNorm2d(256, eps=1e-05, momentum=0.9, affine=True, track_running_stats=True)
          (downsample): Identity()
        )
        (2): Bottleneck(
          (conv1): Conv2d(256, 64, kernel_size=(1, 1), bias=False)
          (bn1): BatchNorm2d(64, eps=1e-05, momentum=0.9, affine=True, track_running_stats=True)
          (conv2): Conv2d(64, 64, kernel_size=(3, 3), padding=(1, 1), bias=False)
          (bn2): BatchNorm2d(64, eps=1e-05, momentum=0.9, affine=True, track_running_stats=True)
          (conv3): Conv2d(64, 256, kernel_size=(1, 1), bias=False)
          (bn3): BatchNorm2d(256, eps=1e-05, momentum=0.9, affine=True, track_running_stats=True)
          (downsample): Identity()
        )
      )
      (layer2): Sequential(
        (0): Bottleneck(
          (conv1): Conv2d(256, 128, kernel_size=(1, 1), bias=False)
          (bn1): BatchNorm2d(128, eps=1e-05, momentum=0.9, affine=True, track_running_stats=True)
          (conv2): Conv2d(128, 128, kernel_size=(3, 3), stride=(2, 2), padding=(1, 1), bias=False)
          (bn2): BatchNorm2d(128, eps=1e-05, momentum=0.9, affine=True, track_running_stats=True)
          (conv3): Conv2d(128, 512, kernel_size=(1, 1), bias=False)
          (bn3): BatchNorm2d(512, eps=1e-05, momentum=0.9, affine=True, track_running_stats=True)
          (downsample): Sequential(
            (0): Conv2d(256, 512, kernel_size=(1, 1), stride=(2, 2), bias=False)
            (1): BatchNorm2d(512, eps=1e-05, momentum=0.9, affine=True, track_running_stats=True)
          )
        )
        (1): Bottleneck(
          (conv1): Conv2d(512, 128, kernel_size=(1, 1), bias=False)
          (bn1): BatchNorm2d(128, eps=1e-05, momentum=0.9, affine=True, track_running_stats=True)
          (conv2): Conv2d(128, 128, kernel_size=(3, 3), padding=(1, 1), bias=False)
          (bn2): BatchNorm2d(128, eps=1e-05, momentum=0.9, affine=True, track_running_stats=True)
          (conv3): Conv2d(128, 512, kernel_size=(1, 1), bias=False)
          (bn3): BatchNorm2d(512, eps=1e-05, momentum=0.9, affine=True, track_running_stats=True)
          (downsample): Identity()
        )
        (2): Bottleneck(
          (conv1): Conv2d(512, 128, kernel_size=(1, 1), bias=False)
          (bn1): BatchNorm2d(128, eps=1e-05, momentum=0.9, affine=True, track_running_stats=True)
          (conv2): Conv2d(128, 128, kernel_size=(3, 3), padding=(1, 1), bias=False)
          (bn2): BatchNorm2d(128, eps=1e-05, momentum=0.9, affine=True, track_running_stats=True)
          (conv3): Conv2d(128, 512, kernel_size=(1, 1), bias=False)
          (bn3): BatchNorm2d(512, eps=1e-05, momentum=0.9, affine=True, track_running_stats=True)
          (downsample): Identity()
        )
        (3): Bottleneck(
          (conv1): Conv2d(512, 128, kernel_size=(1, 1), bias=False)
          (bn1): BatchNorm2d(128, eps=1e-05, momentum=0.9, affine=True, track_running_stats=True)
          (conv2): Conv2d(128, 128, kernel_size=(3, 3), padding=(1, 1), bias=False)
          (bn2): BatchNorm2d(128, eps=1e-05, momentum=0.9, affine=True, track_running_stats=True)
          (conv3): Conv2d(128, 512, kernel_size=(1, 1), bias=False)
          (bn3): BatchNorm2d(512, eps=1e-05, momentum=0.9, affine=True, track_running_stats=True)
          (downsample): Identity()
        )
      )
      (layer3): Sequential(
        (0): Bottleneck(
          (conv1): Conv2d(512, 256, kernel_size=(1, 1), bias=False)
          (bn1): BatchNorm2d(256, eps=1e-05, momentum=0.9, affine=True, track_running_stats=True)
          (conv2): Conv2d(256, 256, kernel_size=(3, 3), stride=(2, 2), padding=(1, 1), bias=False)
          (bn2): BatchNorm2d(256, eps=1e-05, momentum=0.9, affine=True, track_running_stats=True)
          (conv3): Conv2d(256, 1024, kernel_size=(1, 1), bias=False)
          (bn3): BatchNorm2d(1024, eps=1e-05, momentum=0.9, affine=True, track_running_stats=True)
          (downsample): Sequential(
            (0): Conv2d(512, 1024, kernel_size=(1, 1), stride=(2, 2), bias=False)
            (1): BatchNorm2d(1024, eps=1e-05, momentum=0.9, affine=True, track_running_stats=True)
          )
        )
        (1): Bottleneck(
          (conv1): Conv2d(1024, 256, kernel_size=(1, 1), bias=False)
          (bn1): BatchNorm2d(256, eps=1e-05, momentum=0.9, affine=True, track_running_stats=True)
          (conv2): Conv2d(256, 256, kernel_size=(3, 3), padding=(1, 1), bias=False)
          (bn2): BatchNorm2d(256, eps=1e-05, momentum=0.9, affine=True, track_running_stats=True)
          (conv3): Conv2d(256, 1024, kernel_size=(1, 1), bias=False)
          (bn3): BatchNorm2d(1024, eps=1e-05, momentum=0.9, affine=True, track_running_stats=True)
          (downsample): Identity()
        )
        (2): Bottleneck(
          (conv1): Conv2d(1024, 256, kernel_size=(1, 1), bias=False)
          (bn1): BatchNorm2d(256, eps=1e-05, momentum=0.9, affine=True, track_running_stats=True)
          (conv2): Conv2d(256, 256, kernel_size=(3, 3), padding=(1, 1), bias=False)
          (bn2): BatchNorm2d(256, eps=1e-05, momentum=0.9, affine=True, track_running_stats=True)
          (conv3): Conv2d(256, 1024, kernel_size=(1, 1), bias=False)
          (bn3): BatchNorm2d(1024, eps=1e-05, momentum=0.9, affine=True, track_running_stats=True)
          (downsample): Identity()
        )
        (3): Bottleneck(
          (conv1): Conv2d(1024, 256, kernel_size=(1, 1), bias=False)
          (bn1): BatchNorm2d(256, eps=1e-05, momentum=0.9, affine=True, track_running_stats=True)
          (conv2): Conv2d(256, 256, kernel_size=(3, 3), padding=(1, 1), bias=False)
          (bn2): BatchNorm2d(256, eps=1e-05, momentum=0.9, affine=True, track_running_stats=True)
          (conv3): Conv2d(256, 1024, kernel_size=(1, 1), bias=False)
          (bn3): BatchNorm2d(1024, eps=1e-05, momentum=0.9, affine=True, track_running_stats=True)
          (downsample): Identity()
        )
        (4): Bottleneck(
          (conv1): Conv2d(1024, 256, kernel_size=(1, 1), bias=False)
          (bn1): BatchNorm2d(256, eps=1e-05, momentum=0.9, affine=True, track_running_stats=True)
          (conv2): Conv2d(256, 256, kernel_size=(3, 3), padding=(1, 1), bias=False)
          (bn2): BatchNorm2d(256, eps=1e-05, momentum=0.9, affine=True, track_running_stats=True)
          (conv3): Conv2d(256, 1024, kernel_size=(1, 1), bias=False)
          (bn3): BatchNorm2d(1024, eps=1e-05, momentum=0.9, affine=True, track_running_stats=True)
          (downsample): Identity()
        )
        (5): Bottleneck(
          (conv1): Conv2d(1024, 256, kernel_size=(1, 1), bias=False)
          (bn1): BatchNorm2d(256, eps=1e-05, momentum=0.9, affine=True, track_running_stats=True)
          (conv2): Conv2d(256, 256, kernel_size=(3, 3), padding=(1, 1), bias=False)
          (bn2): BatchNorm2d(256, eps=1e-05, momentum=0.9, affine=True, track_running_stats=True)
          (conv3): Conv2d(256, 1024, kernel_size=(1, 1), bias=False)
          (bn3): BatchNorm2d(1024, eps=1e-05, momentum=0.9, affine=True, track_running_stats=True)
          (downsample): Identity()
        )
      )
      (layer4): Sequential(
        (0): Bottleneck(
          (conv1): Conv2d(1024, 512, kernel_size=(1, 1), bias=False)
          (bn1): BatchNorm2d(512, eps=1e-05, momentum=0.9, affine=True, track_running_stats=True)
          (conv2): Conv2d(512, 512, kernel_size=(3, 3), stride=(2, 2), padding=(1, 1), bias=False)
          (bn2): BatchNorm2d(512, eps=1e-05, momentum=0.9, affine=True, track_running_stats=True)
          (conv3): Conv2d(512, 2048, kernel_size=(1, 1), bias=False)
          (bn3): BatchNorm2d(2048, eps=1e-05, momentum=0.9, affine=True, track_running_stats=True)
          (downsample): Sequential(
            (0): Conv2d(1024, 2048, kernel_size=(1, 1), stride=(2, 2), bias=False)
            (1): BatchNorm2d(2048, eps=1e-05, momentum=0.9, affine=True, track_running_stats=True)
          )
        )
        (1): Bottleneck(
          (conv1): Conv2d(2048, 512, kernel_size=(1, 1), bias=False)
          (bn1): BatchNorm2d(512, eps=1e-05, momentum=0.9, affine=True, track_running_stats=True)
          (conv2): Conv2d(512, 512, kernel_size=(3, 3), padding=(1, 1), bias=False)
          (bn2): BatchNorm2d(512, eps=1e-05, momentum=0.9, affine=True, track_running_stats=True)
          (conv3): Conv2d(512, 2048, kernel_size=(1, 1), bias=False)
          (bn3): BatchNorm2d(2048, eps=1e-05, momentum=0.9, affine=True, track_running_stats=True)
          (downsample): Identity()
        )
        (2): Bottleneck(
          (conv1): Conv2d(2048, 512, kernel_size=(1, 1), bias=False)
          (bn1): BatchNorm2d(512, eps=1e-05, momentum=0.9, affine=True, track_running_stats=True)
          (conv2): Conv2d(512, 512, kernel_size=(3, 3), padding=(1, 1), bias=False)
          (bn2): BatchNorm2d(512, eps=1e-05, momentum=0.9, affine=True, track_running_stats=True)
          (conv3): Conv2d(512, 2048, kernel_size=(1, 1), bias=False)
          (bn3): BatchNorm2d(2048, eps=1e-05, momentum=0.9, affine=True, track_running_stats=True)
          (downsample): Identity()
        )
      )
    )
  )
  (rpn): RPN(
    (rpn_conv): Conv2d(256, 256, kernel_size=(3, 3), padding=(1, 1))
    (rpn_cls_score): Conv2d(256, 3, kernel_size=(1, 1))
    (rpn_bbox_offsets): Conv2d(256, 12, kernel_size=(1, 1))
  )
  (rcnn): RCNN(
    (fc1): Linear(in_features=12544, out_features=1024, bias=True)
    (fc2): Linear(in_features=1024, out_features=1024, bias=True)
    (pred_cls): Linear(in_features=1024, out_features=21, bias=True)
    (pred_delta): Linear(in_features=1024, out_features=80, bias=True)
  )
)
[32m22 09:13:15 [0mLoading Base-Pretrain weights...
[32m22 09:13:17 [0mPrepare dataset
[32m22 09:14:18 [0me0, 0/200, lr:0.000025, total_loss:3.027548, rpn_cls:0.037273, rpn_bbox:0.002786, rcnn_cls:2.919741, rcnn_bbox:0.067749, train_time:1.652s, data_time:52.226s
[32m22 09:14:22 [0me0, 10/200, lr:0.000275, total_loss:3.155592, rpn_cls:0.046993, rpn_bbox:0.025642, rcnn_cls:3.002897, rcnn_bbox:0.080060, train_time:0.272s, data_time:0.004s
…
